model.pth (torch_old, 52371 bytes, 26 tensors)

lstm1.lstm.weight_ih f4 [64, 27]
0.010014055 -0.008527531 -0.00033409073 -0.002281106 0.0062483717 -1.201328e-39 4.9597822e-11 0.0005603564
0.02203153 -1.167492e-39 -6.9017e-40 -0.003928901 -5.7224333e-05 -0.024594748 0.008653231 0.0005971977
-1.169905e-39 -0.0045706974 0.0048189606 -0.027245 0.008607339 -5.339249e-21 1.654765e-39 -2.51115e-40
0.003281517 -8.88698e-40 -0.008293192 0.023550592 -0.0004495529 0.015556983 0.103002295 -0.08081768
6.31125e-40 -0.00027326558 -0.0016843766 -0.0033274468 1.110606e-39 -9.52598e-40 -0.016242404 0.014773202
0.09324178 0.111712195 -0.008215913 -1.759309e-39 0.01640762 -0.0750119 -0.031573474 -0.0034239602
-5.8954924e-11 4.4392e-40 -1.026434e-39 -0.009312134 1.281339e-39 -0.076356255 0.016761484 -0.0005461001
0.0011369935 -0.00045329667 0.0027877723 1.554896e-39 4.4866053e-09 0.00085705705 -0.019314025 1.430859e-39
1.039804e-39 0.0051963767 -2.3405735e-09 -0.007237961 0.007852253 -0.0073733316 1.364601e-39 -0.018775774
0.0025830972 0.016048986 -0.0042977855 1.0499079e-22 1.693741e-39 -1.857558e-39 0.0026271658 -7.26932e-40
-0.01393433 -0.20429866 0.07516249 -0.007274616 -0.031237619 0.21691124 1.010437e-39 0.018681703
-0.062966555 -0.22045003 1.230319e-39 1.4758e-41 0.050860744 -0.0028234206 0.04193293 -0.062107727
-0.036351904 1.190624e-39 -0.027055804 0.043001767 0.05861114 -0.04001609 1.6428331e-10 -4.11029e-40
8.76273e-40 -0.01538633 -6.07676e-40 -0.17473267 -0.04735177 0.010262371 -0.0016912501 0.012352377
0.07201621 1.333167e-39 -2.2703224e-08 -4.0542513e-05 0.06499048 -7.13473e-40 1.122593e-39 -0.030114138
-0.0034377333 -0.026248466 -0.0038520608 -0.00024556147 6.98551e-40 -0.017657695 -0.0057331454 -0.008518975
0.06436428 -7.103207e-22 1.143269e-39 1.864753e-39 -8.82211e-06 1.67756e-40 -0.042540293 -0.0538104
0.012291547 -0.011895533 -0.0063128322 -0.011141516 -5.44717e-40 -4.5929777e-05 0.027950982 -0.05253712
-1.625055e-39 -3.017e-41 0.17745586 -0.026849091 -0.016588392 0.005400961 -0.013557644 1.180843e-39
-0.008186878 0.0984835 0.014545078 0.010687192 1.304648e-09 9.36139e-40 -3.25894e-40 0.0020037962
-2.59017e-40 -0.031462457 0.008151467 0.016185801 -0.0051009413 0.0019799967 -0.008347862 -6.1695e-41
4.395026e-09 -0.00058885134 -0.011216053 6.40609e-40 -3.72863e-40 0.028792374 0.0008699974 0.012018289
-0.02267435 -0.0017733341 2.8251e-40 -0.008414998 -0.010284236 0.014627423 0.011817824 5.492517e-22
1.371085e-39 3.1344e-40 -0.0055542234 1.505002e-39 -0.021867514 -0.0877708 -0.004247329 -0.0011495441
0.0048652375 -0.10767957 -9.75845e-40 -0.0050297757 -0.022939153 -0.05961578 -7.06058e-40 1.16468e-39
-0.02869886 0.0016850434 -0.021105085 -0.04662041 0.018418394 -1.658343e-39 -0.046046063 -0.010019473
0.2832352 0.05064283 2.841401e-20 1.436774e-39 -3.0245e-40 0.0056140404 5.4303e-41 -0.07301248
0.07972143 -0.11595239 -0.056274213 -0.090850286 0.10919283 -1.143049e-39 -0.027921775 -0.016894799
0.102483064 4.1463e-40 7.37457e-40 -0.1337504 -0.01105729 -0.19187216 0.09564022 -0.048381284
-8.4119e-40 -0.22721714 -0.17145886 0.52651733 0.14341836 2.0301718e-06 -1.48282e-39 1.254881e-39
0.1366318 -1.00153e-39 -0.22872369 0.10850589 0.012020107 -0.00981243 0.014473647 0.19162248
-1.168586e-39 -0.0018306557 -0.0011377966 0.08811179 6.75892e-40 1.50493e-39 -0.0035792214 -0.030216645
00000000: fe11 243c 0fb7 0bbc e628 afb9 9c7e 15bb
00000010: 24bf cc3b d014 0d80 2f22 5a2e e2e4 123a
00000020: 787b b43c 7eb6 0c80 ea83 0780 03be 80bb
00000030: 2904 70b8 ed7a c9bc 48c6 0d3c 428d 1c3a
00000040: 38bd 0c80 cac5 95bb 5fe8 9d3b e830 dfbc
00000050: cc05 0d3c 0cb6 c99d d004 1200 02bc 0280
00000060: b80e 573b 54ad 0980 2be0 07bc 2ced c03c
00000070: f8b1 ebb9 b7e2 7e3c def2 d23d bd83 a5bd
00000080: 52df 0600 1645 8fb9 4dc6 dcba 4b11 5abb
00000090: eb17 0c00 755f 0a80 ca0e 85bc 4d0b 723c
000000a0: 8cf5 be3d 5dc9 e43d 099c 06bc 3d28 1380
000000b0: 4669 863c d79f 99bd 3053 01bd 8564 60bb
000000c0: aca4 81ae 78d5 0400 482d 0b80 ec91 18bc
000000d0: daf3 0d00 ab60 9cbd 614f 893c 2828 0fba
000000e0: 2c07 953a 73a8 edb9 0fb3 363b 6bee 1000
000000f0: 9928 9a31 20ac 603a 7238 9ebc a794 0f00
00000100: 8d52 0b00 5e46 aa3b ced7 20b1 6b2c edbb
00000110: bca6 003c fd9b f1bb f4db 0e00 a7cf 99bc
00000120: 2e49 293b 2a79 833c 70d4 8cbb 27da fd1a
00000130: 7671 1200 1e3a 1480 872c 2c3b 64ea 0780
00000140: d14c 64bc ab33 51be cbee 993d e75f eebb
00000150: 09e6 ffbc fb1d 5e3e b000 0b00 5f0a 993c
00000160: 9cf4 80bd a7bd 61be a165 0d00 2429 0000
00000170: 5b53 503d 2309 39bb ddc1 2b3d ac64 7ebd
00000180: bce5 14bd faf6 0c00 22a4 ddbc 9f22 303d
00000190: 3c12 703d e9e7 23bd a4a1 342f c879 0480
000001a0: b18a 0900 f216 7cbc f49d 0680 1fed 32be
000001b0: eef3 41bd 8123 283c f0ac ddba a061 4a3c
000001c0: 3c7d 933d 5484 0e00 eb04 c3b2 310c 2ab8
000001d0: bb19 853d dfc4 0780 5539 0c00 edb1 f6bc
000001e0: 984b 61bb 0607 d7bc db72 7cbb b4be 80b9
000001f0: 479b 0700 dfa6 90bc 1cdd bbbb 2c93 0bbc
00000200: 6bd1 833d 67ae 569c f872 0c00 2c4e 1400
00000210: ad02 14b7 a3d3 0100 bb3e 2ebd 4b68 5cbd
00000220: 7c62 493c 7be5 42bc e0db cebb e88a 36bc
00000230: 73ee 0580 b9a4 40b8 75f9 e43c 2a31 57bd
00000240: feb1 1180 1a54 0080 fdb6 353e a0f2 dbbc
00000250: 61e4 87bc 8bfa b03b e120 5ebc b6db 0c00
00000260: 4122 06bc b8b1 c93d 7b4e 6e3c 5519 2f3c
00000270: 384f b330 9331 0a00 768c 0380 1f52 033b
00000280: 09d2 0280 c7de 00bd bb8d 053c 1698 843c
00000290: cc25 a7bb d5c2 013b 79c5 08bc fbab 0080
000002a0: 0f03 9731 255d 1aba 89c3 37bc c2f9 0600
000002b0: 640f 0480 fcdd eb3c 8a10 643a 5ce8 443c
000002c0: 8fbf b9bc 386f e8ba 8613 0300 0fdf 09bc
000002d0: 367f 28bc dca7 6f3c 8c9f 413c 4b00 261c
000002e0: 07ee 0e00 be69 0300 3400 b6bb 5563 1000
000002f0: 8023 b3bc 2dc1 b3bd 2e2d 8bbb 4dac 96ba
00000300: 926c 9f3b 1b87 dcbd 42a0 0a80 d1d0 a4bb
00000310: e4ea bbbc ad2f 74bd 34b0 0780 a7ae 0c00
00000320: df19 ebbc addc dc3a 92e4 acbc 0bf5 3ebd
00000330: 2ce2 963c c90e 1280 cc9a 3cbd b728 24bc
00000340: 3404 913e db6e 4f3d 6e2e 061f 24a5 0f00
00000350: 1c4b 0380 fcf5 b73b 6097 0000 9187 95bd
00000360: fd44 a33d 7278 edbd ca7f 66bd b70f babd
00000370: 7ea0 df3d 5b72 0c80 35bc e4bc f666 8abc
00000380: a4e2 d13d d283 0400 bb07 0800 ddf5 08be
00000390: a329 35bc 237a 44be 05df c33d 742b 46bd
000003a0: e528 0980 9cab 68be e992 2fbe d7c9 063f
000003b0: 43dc 123e 163e 0836 8025 1080 19aa 0d00
000003c0: 35e9 0b3e dce7 0a80 8b36 6abe 5638 de3d
000003d0: fcef 443c 50c4 20bc e022 6d3c af38 443e
000003e0: 8bb9 0c80 9df2 efba 1e22 95ba f473 b43d
000003f0: 1d5c 0700 2263 1000 5f91 6abb e688 f7bc

lstm1.lstm.weight_hh f4 [64, 16]
-0.0008775843 0.00253805 0.0009753734 -0.00804628 0.0048835785 -0.0010863418 -0.0027658935 -0.005805129
0.0025863426 0.0035693871 0.008975647 0.004743264 0.0012622157 0.008083665 -0.0034395806 0.0018395172
0.016812235 0.030423433 0.0047270297 -0.020616934 -0.02685666 -0.0064376188 0.011986672 -0.0053819963
-0.007093906 0.021135546 0.008265543 0.016503202 0.010003633 -0.031029193 0.015256791 0.0044521885
0.0013160945 0.009314239 -0.0038798687 -0.0038611249 -0.0055562467 -0.0016988027 0.011260414 0.011848577
-0.0042991615 -0.0043146485 0.00060329185 0.0067349426 -0.0065769646 -0.016518319 0.012903158 -0.0049029104
0.013110975 -0.08993712 -0.025047746 -0.0026620135 0.0060906135 0.023211801 0.0170791 -0.032396555
0.039014254 -0.118922405 -0.06551976 -0.05115322 0.01085844 0.06196532 0.014791382 -0.021959746
0.0012523888 0.006665479 -0.00306325 0.0049727424 0.0026917802 0.0072172927 0.015895272 0.0062905108
-0.007871806 -0.018861145 -0.0065908637 -0.007937506 -0.006342875 0.0020314897 0.0030183583 -0.009476916
-0.0027806163 0.0077820583 -0.0016715102 -0.015311218 -0.0130097335 -0.037393846 -0.0038380644 -0.0067812246
0.016154576 -0.0070055327 -0.0018044795 -0.013964165 -0.0055494565 0.013597843 -0.0038108104 -0.030494848
-0.0060176137 -0.013532597 0.00038821204 0.0016948999 -0.005451778 -0.005171854 -0.0016774057 0.0036435972
-0.003994585 0.004975239 0.0030318908 0.013670782 0.013651991 -0.02058928 -0.0049551274 -0.019106416
-0.010453217 -0.009671651 0.0057788775 -0.013648348 -0.011752111 0.00984054 0.023503443 0.027314285
-0.010689616 -0.01729742 0.015564959 0.0050206156 -0.02004951 -0.01231472 0.02704335 -0.026833307
0.027545692 0.02531097 -0.019879356 -0.105332635 -0.0040943013 0.038636982 0.07724989 -0.012395305
0.036349613 -0.019904792 0.01499067 0.015986769 -0.04283015 0.051809356 0.062163167 0.0034079596
0.035309225 0.020797916 -0.045056377 0.031508904 0.061871532 0.013300099 0.014777144 -0.0150571205
-0.0054593366 -0.15098187 -0.023756823 0.040802483 -0.012204843 -0.01656019 -0.009312933 0.033970088
-0.0025667576 -0.004670708 -0.0020249686 -0.0052625807 0.013140169 -0.00454634 -0.020372784 -0.012078786
0.0040515596 -0.020959487 0.009296687 -7.042591e-05 0.022640869 0.024624532 -0.02357149 0.016108492
-0.0022331295 0.0055274507 -0.0030069891 -0.005473911 -0.01008869 0.00058635685 0.009706141 0.0017845791
0.0037494765 -0.0116979275 -0.0019949442 0.0076519735 -0.00022441853 -0.004725041 0.010771417 -0.0024809744
0.0045064255 -0.008061206 -0.0019689791 -0.013216275 -0.011073311 0.012534399 0.0045186267 -0.002116183
0.009690379 -0.0020808373 -0.002823604 0.0045213364 0.016802063 0.0060369223 0.013271709 -0.00010258457
0.0002556731 0.00014429986 -0.00027146138 -0.010055737 -0.0069497256 0.0007000344 0.0030729482 0.0046071503
-0.0014395659 0.0029550502 0.00031234315 0.00053735863 -0.016684867 -0.0075846785 0.008097167 -0.010615128
-0.012098469 -0.016616628 0.021229956 -0.018541738 0.017126324 0.030135999 0.0113080945 -0.015408756
-0.007161268 0.01539024 0.033574987 0.028038004 0.0153020015 0.0030438472 0.0035591603 0.016624631
-0.023291748 -0.010902248 0.0013460573 0.017152477 0.016133245 0.00619059 0.002135265 -0.027841998
0.018600646 -0.016918402 -0.009703542 -0.046604663 -0.041411012 0.061433066 -0.006174255 0.004822065
00000000: af0d 66ba 6a55 263b 33b0 7f3a 8bd4 03bc
00000010: 6d06 a03b 9563 8eba fe43 35bb f438 bebb
00000020: a17f 293b 61ec 693b 980e 133c 626d 9b3b
00000030: ee70 a53a 5971 043c 966a 61bb f41b f13a
00000040: d0b9 893c 903a f93c 33e5 9a3b d8e4 a8bc
00000050: 8002 dcbc a9f2 d2bb bf63 443c 755b b0bb
00000060: ff73 e8bb 7424 ad3c 336c 073c b931 873c
00000070: 47e6 233c ef30 febc 9ff7 793c aae3 913b
00000080: ce80 ac3a c09a 183c 6545 7ebb ed0a 7dbb
00000090: 2d11 b6bb 5caa deba 997d 383c 8920 423c
000000a0: fbdf 8cbb e561 8dbb 3b26 1e3a cbb0 dc3b
000000b0: 9483 d7bb 6d51 87bc c467 533c 98a8 a0bb
000000c0: 6acf 563c f430 b8bd ee30 cdbc 2d75 2ebb
000000d0: c593 c73b ad26 be3c 78e9 8b3c 40b2 04bd
000000e0: 69cd 1f3d 978d f3bd 392f 86bd 0a86 51bd
000000f0: 99e7 313c 59cf 7d3d 8d57 723c ede4 b3bc
00000100: 3227 a43a 176a da3b cfc0 48bb 63f2 a23b
00000110: 9468 303b 0a7f ec3b cd36 823c a120 ce3b
00000120: bff8 00bc b082 9abc 2cf8 d7bb 500c 02bc
00000130: e4d7 cfbb be22 053b a6cf 453b 1145 1bbc
00000140: 003b 36bb a300 ff3b 9316 dbba e7db 7abc
00000150: c726 55bc 4a2a 19bd 0988 7bbb 0935 debb
00000160: 9a56 843c ab8e e5bb 4984 ecba f4c9 64bc
00000170: 37d8 b5bb 7dc9 5e3c cabe 79bb 55d0 f9bc
00000180: 672f c5bb d3b7 5dbc f088 cb39 6727 de3a
00000190: d4a4 b2bb a878 a9bb 65dc dbba 6bc9 6e3b
000001a0: 02e5 82bb 5407 a33b b0b2 463b 6afb 5f3c
000001b0: 9aac 5f3c daaa a8bc 9f5e a2bb 0f85 9cbc
000001c0: f843 2bbc d875 1ebc bd5c bd3b 529d 5fbc
000001d0: ed8b 40bc 373a 213c 4b8a c03c 35c2 df3c
000001e0: 8023 2fbc 52b3 8dbc 2b04 7f3c fa83 a43b
000001f0: df3e a4bc aec3 49bc 048a dd3c 86d1 dbbc
00000200: 81a7 e13c f458 cf3c 08da a2bc a3b8 d7bd
00000210: 7d29 86bb d041 1e3d 3135 9e3d ad15 4bbc
00000220: 55e3 143d 600f a3bc 6d9b 753c aff6 823c
00000230: ab6e 2fbd 0c36 543d ce9e 7e3d 1358 5f3b
00000240: 68a0 103d 6460 aa3c 098d 38bd 7b0f 013d
00000250: 016d 7d3d a9e8 593c d61b 723c 24b2 76bc
00000260: 3ce4 b2bb fe9a 1abe ab9d c2bc 8120 273d
00000270: d2f6 47bc 3ca9 87bc 4695 18bc 3824 0b3d
00000280: 0c37 28bb bd0c 99bb 56b5 04bb ba71 acbb
00000290: dd49 573c 77f9 94bb d3e4 a6bc 1ae6 45bc
000002a0: f2c2 843b 3bb3 abbc 2251 183c 9fb1 93b8
000002b0: 5879 b93c 63b9 c93c ff18 c1bc f5f5 833c
000002c0: b259 12bb 9e1f b53b e810 45bb 7e5e b3bb
000002d0: 084b 25bc beb5 193a 8206 1f3c 8ae8 e93a
000002e0: c7b9 753b aaa8 3fbc 9cbd 02bb 68bd fa3b
000002f0: e451 6bb9 84d4 9abb 997a 303c d897 22bb
00000300: a3aa 933b 2613 04bc fd09 01bb 1389 58bc
00000310: d56c 35bc 145d 4d3c fd10 943b a9af 0abb
00000320: 65c4 1e3c a85e 08bb 370c 39bb b827 943b
00000330: 7ba4 893c 60d1 c53b 9571 593c ac22 d7b8
00000340: dd0b 8639 334f 1739 ee52 8eb9 d1c0 24bc
00000350: 86ba e3bb 8382 373a 8463 493b 94f7 963b
00000360: d1af bcba 84a9 413b fdc1 a339 87dd 0c3a
00000370: b4ae 88bc e588 f8bb fba9 043c 13eb 2dbc
00000380: a838 46bc 981f 88bc 72ea ad3c d8e4 97bc
00000390: 814c 8c3c c5df f63c 9645 393c 0275 7cbc
000003a0: 12a9 eabb 5827 7c3c ed85 093d f5af e53c
000003b0: 3fb5 7a3c 487b 473b cd40 693b 6130 883c
000003c0: 56ce bebc 589f 32bc 306e b03a 5a83 8c3c
000003d0: de29 843c 6fda ca3b cdef 0b3b e714 e4bc
000003e0: 6260 983c 7698 8abc 9bfb 1ebc 88e4 3ebd
000003f0: 989e 29bd 3da1 7b3d 6851 cabb 6a02 9e3b

lstm1.lstm.bias_ih f4 [64]
-0.034930985 -0.122225635 -0.045418046 -0.47449622 -0.06836394 -0.10368056 -0.043857366 -0.36182812
-0.7808403 -0.067391925 -0.14205329 -0.097344175 -0.09800097 -0.06860574 -0.060532108 -0.1109732
-0.033991598 -0.075431675 -0.02307601 -0.35106418 -0.13471083 -0.158169 -0.024114503 -0.25252774
-0.52461165 0.04512624 -0.07069003 -0.083778635 -0.10012765 -0.084470816 -0.0974593 -0.1731405
-0.0062897494 0.08249459 0.009975608 0.26928928 -0.002569989 -0.08975393 -0.058886196 -0.1420645
-0.38537562 0.05214358 -0.087349534 -0.060150944 0.093211465 -0.06678879 -0.05639259 0.12420719
-0.034612045 -0.105045386 -0.045526013 -0.48123989 -0.07716975 -0.083804 -0.043567583 -0.35967413
-0.7726474 -0.080504514 -0.13151051 -0.09404725 -0.084558934 -0.06690155 -0.06807209 -0.09528291
00000000: cb13 0fbd 6f51 fabd 4608 3abd 2bf1 f2be
00000010: 6502 8cbd 7956 d4bd c8a3 33bd 8941 b9be
00000020: 26e5 47bf c704 8abd 6b76 11be 625c c7bd
00000030: bcb4 c8bd 2b81 8cbd 84f0 77bd eb45 e3bd
00000040: c63a 0bbd ec7b 9abd e709 bdbc afbe b3be
00000050: a3f1 09be 0ef7 21be c78b c5bc 514b 81be
00000060: f34c 06bf 4bd6 383d efc5 90bd 2294 abbd
00000070: ba0f cdbd 09ff acbd be98 c7bd be4b 31be
00000080: 3e1a cebb ecf2 a83d bc70 233c 49e0 893e
00000090: 436d 28bb e9d0 b7bd a732 71bd 5b79 11be
000000a0: f44f c5be 8294 553d 50e4 b2bd d660 76bd
000000b0: a7e5 be3d 90c8 88bd ebfb 66bd 5760 fe3d
000000c0: 5cc5 0dbd 0922 d7bd 7c79 3abd 1365 f6be
000000d0: 2d0b 9ebd 6ea1 abbd ec73 32bd 3527 b8be
000000e0: 38cc 45bf 8ddf a4bd b1aa 06be d89b c0bd
000000f0: 3c2d adbd ae03 89bd 6169 8bbd b023 c3bd

lstm1.lstm.bias_hh f4 [64]
-0.034930985 -0.122225635 -0.045418046 -0.47449622 -0.06836394 -0.10368056 -0.043857366 -0.36182812
-0.7808403 -0.067391925 -0.14205329 -0.097344175 -0.09800097 -0.06860574 -0.060532108 -0.1109732
-0.033991598 -0.075431675 -0.02307601 -0.35106418 -0.13471083 -0.158169 -0.024114503 -0.25252774
-0.52461165 0.04512624 -0.07069003 -0.083778635 -0.10012765 -0.084470816 -0.0974593 -0.1731405
-0.0062897494 0.08249459 0.009975608 0.26928928 -0.002569989 -0.08975393 -0.058886196 -0.1420645
-0.38537562 0.05214358 -0.087349534 -0.060150944 0.093211465 -0.06678879 -0.05639259 0.12420719
-0.034612045 -0.105045386 -0.045526013 -0.48123989 -0.07716975 -0.083804 -0.043567583 -0.35967413
-0.7726474 -0.080504514 -0.13151051 -0.09404725 -0.084558934 -0.06690155 -0.06807209 -0.09528291
00000000: cb13 0fbd 6f51 fabd 4608 3abd 2bf1 f2be
00000010: 6502 8cbd 7956 d4bd c8a3 33bd 8941 b9be
00000020: 26e5 47bf c704 8abd 6b76 11be 625c c7bd
00000030: bcb4 c8bd 2b81 8cbd 84f0 77bd eb45 e3bd
00000040: c63a 0bbd ec7b 9abd e709 bdbc afbe b3be
00000050: a3f1 09be 0ef7 21be c78b c5bc 514b 81be
00000060: f34c 06bf 4bd6 383d efc5 90bd 2294 abbd
00000070: ba0f cdbd 09ff acbd be98 c7bd be4b 31be
00000080: 3e1a cebb ecf2 a83d bc70 233c 49e0 893e
00000090: 436d 28bb e9d0 b7bd a732 71bd 5b79 11be
000000a0: f44f c5be 8294 553d 50e4 b2bd d660 76bd
000000b0: a7e5 be3d 90c8 88bd ebfb 66bd 5760 fe3d
000000c0: 5cc5 0dbd 0922 d7bd 7c79 3abd 1365 f6be
000000d0: 2d0b 9ebd 6ea1 abbd ec73 32bd 3527 b8be
000000e0: 38cc 45bf 8ddf a4bd b1aa 06be d89b c0bd
000000f0: 3c2d adbd ae03 89bd 6169 8bbd b023 c3bd

bn_lstm1.weight f4 [16]
-0.030490605 -0.35168537 0.038114738 -1.1201651 0.3533083 0.29310235 0.041499574 0.3853159
1.8490583 0.48934552 0.35419744 0.20928504 -0.24506438 0.3078478 -0.282586 -0.3681458
00000000: 6fc7 f9bc 1b10 b4be 331e 1c3d 9261 8fbf
00000010: d3e4 b43e 8311 963e 75fb 293d 2048 c53e
00000020: f1ad ec3f 7f8b fa3e 5e59 b53e d14e 563e
00000030: 28f2 7abe 3a9e 9d3e 1daf 90be 9b7d bcbe

bn_lstm1.bias f4 [16]
1.4679989 -0.22591314 0.9148025 -0.078540325 -0.46315104 -0.2530211 1.7455963 -0.2459173
-0.16330434 -0.26930022 -0.24720071 -0.23892008 -0.19101906 -0.2767353 -0.33055314 -0.24942577
00000000: 63e7 bb3f c655 67be 7f30 6a3f c0d9 a0bd
00000010: 2222 edbe fb8b 81be b36f df3f bfd1 7bbe
00000020: 4139 27be b8e1 89be 2f22 7dbe 77a7 74be
00000030: 809a 43be 40b0 8dbe 433e a9be 7869 7fbe

bn_lstm1.running_mean f4 [16]
-0.0046792063 -0.0055096513 0.004495706 0.03513788 0.040705018 -0.014333673 -0.041351564 0.0005148796
-0.016133714 0.04745742 -0.007826902 -0.013166551 0.0060364394 -0.001622165 -0.042686574 0.02083626
00000000: 0754 99bb 4e8a b4bb b750 933b bdec 0f3d
00000010: 4eba 263d c8d7 6abc 4260 29bd fcf8 063a
00000020: da2a 84bc b662 423d 683c 00bc 84b8 57bc
00000030: 53cd c53b d39e d4ba 1ed8 2ebd ceb0 aa3c

bn_lstm1.running_var f4 [16]
0.0015578804 0.002968336 0.0012965334 0.0019378532 0.004708007 0.00339263 0.0011914594 0.0014196803
0.00043147482 0.024544092 0.0054985816 0.0012109287 0.0023290038 0.0034842654 0.0029512579 0.0033454124
00000000: cb31 cc3a 6a88 423b 71f0 a93a 90ff fd3a
00000010: a045 9a3b e356 5e3b be2a 9c3a 9114 ba3a
00000020: 9237 e239 b110 c93c 722d b43b 06b8 9e3a
00000030: 33a2 183b 4658 643b e469 413b b53e 5b3b

fc.weight f4 [26, 42]
-0.49076873 -0.053507935 -0.407836 0.5645662 -0.0058043813 -0.10457915 -0.5044824 0.14588442
-0.46399918 -0.02466432 0.08370253 -0.29803076 -0.070575885 -0.052626748 -0.16453569 0.044885166
-3.9838197 -0.07192008 0.14747898 0.05527725 0.18552464 -2.3705e-40 0.03820801 0.10134048
0.13453814 1.450837e-39 -1.925597e-39 0.066739745 0.10130264 0.076958634 -0.12886724 0.20101552
1.072768e-39 0.06776498 0.07771488 0.072895475 -0.20731555 0.067895785 9.60083e-40 -3.89554e-40
0.06739227 1.249723e-39 -0.73714364 -0.21227804 -0.6100051 -0.0055737635 -0.16679521 -0.24074379
-0.74810785 -0.25854668 0.18957317 -0.02430836 -0.32464233 -0.050970428 0.015909562 -0.033691827
-0.2201421 0.33330363 0.15874057 -1.0211709 0.12385805 0.11326621 0.109058924 -3.13227e-40
0.050488155 0.083631866 0.13704497 1.618434e-39 -1.015936e-39 0.109409556 0.068271786 0.11599616
0.12865585 0.11283259 -1.40224e-39 0.112908706 0.1327516 0.08343776 0.15037206 -0.050197657
7.1137e-41 -1.1119e-39 0.12719241 1.055485e-39 -0.5648779 0.051926512 -0.53130674 -0.4435979
0.05110417 0.13229758 -0.633504 0.20703793 0.146929 0.061459698 0.17696773 0.13177589
-0.08260729 0.1713198 -0.057188485 0.10527921 0.067916386 -0.11661981 -2.933604 0.028090535
0.1514035 1.091955e-39 0.16458248 0.010709783 0.0845083 -5.43005e-40 -7.20178e-40 0.18952596
0.041606955 0.18386129 0.1615658 0.022415012 9.92802e-40 0.07799929 0.14272968 0.09925787
0.088677816 -0.07533718 1.031891e-39 1.389082e-39 0.024227036 -5.55892e-40 -0.60422516 0.08316853
-0.53595674 -0.09136165 -0.08995451 -0.012714966 -0.6565781 -0.23183067 0.4403345 -0.40228465
-0.1813577 -0.073094785 -0.08714691 0.11604862 -0.013097065 -0.09712306 0.114698365 0.029116325
0.1508179 -3.009708 0.05332341 4.47983e-40 0.016519288 0.14994112 0.09938465 1.519198e-39
-8.37906e-40 0.15635373 0.071990885 0.11107248 0.080661915 0.16575855 1.057093e-39 0.09190928
0.16152081 0.13343398 0.08863504 0.009144309 -1.551663e-39 1.257555e-39 0.055559065 -3.68717e-40
-0.44267422 -0.12506343 -0.35244468 0.6792062 0.0028177882 0.035916775 -0.49098364 0.20634289
-0.41241226 0.48297384 0.09715823 -0.12495694 0.008792318 0.008862763 -0.065978244 -0.05583402
0.013012627 0.12631132 0.20150673 -0.0057233726 -4.229919 9.00085e-40 0.009530205 0.14440572
0.12451109 -1.95086e-40 -8.23343e-40 0.06598485 -0.0054473323 0.051572833 -0.17417683 0.13176739
8.66686e-40 -0.076171555 0.04020013 0.086608365 -0.16543707 0.028544405 1.276136e-39 -9.91648e-40
-0.003520753 -3.43488e-40 -0.81235266 -0.0037075374 -0.6710699 0.22873802 -0.16067857 -0.084856585
-0.84125763 -0.02790099 -0.09245326 -0.12614368 -0.10180772 -0.16895762 0.023777585 0.21082142
-0.2655262 0.17794324 0.20775366 0.0027271747 0.17365518 0.10096401 0.13594131 -3.84047e-40
0.047625717 0.028513856 0.124127306 -1.55093e-39 -5.41514e-40 0.04596025 -0.0058203377 0.13913654
0.19188583 0.15137407 -3.54133e-40 0.04394061 0.14562513 0.11132937 0.11744462 -0.052070536
-1.229743e-39 -8.51835e-40 0.021018948 -1.371735e-39 -0.7045811 0.5322636 -0.60161984 -0.044100687
00000000: 0a46 fbbe 232b 5bbd e1cf d0be 6987 103f
00000010: ae32 bebb 982d d6bd c225 01bf ba62 153e
00000020: 4d91 edbe d40c cabc 3b6c ab3d 7d97 98be
00000030: 178a 90bd 258f 57bd 0b7c 28be 82d9 373d
00000040: e7f6 7ec0 d64a 93bd bb04 173e 666a 623d
00000050: 2cfa 3d3e cd94 0280 0180 1c3d 998b cf3d
00000060: 5ec4 093e 58cc 0f00 c8f7 1480 d9ae 883d
00000070: c277 cf3d 7d9c 9d3d c6f5 03be 03d7 4d3e
00000080: 71ae 0b00 5ec8 8a3d fb28 9f3d 394a 953d
00000090: 874a 54be f20c 8b3d 5274 0a00 eb3d 0480
000000a0: f504 8a3d b89b 0d00 72b5 3cbf 6a5f 59be
000000b0: 4b29 1cbf 1ea4 b6bb 5dcc 2abe 8a85 76be
000000c0: ff83 3fbf 3b60 84be 781f 423e 5322 c7bc
000000d0: 8537 a6be 5ec6 50bd c554 823c 7100 0abd
000000e0: ee6c 61be c6a6 aa3e e38c 223e bab5 82bf
000000f0: 4aa9 fd3d 1df8 e73d 495a df3d 2669 0380
00000100: abcc 4e3d 2f47 ab3d 8455 0c3e 899f 1100
00000110: 0410 0b80 1e12 e03d 14d2 8b3d 658f ed3d
00000120: 5cbe 033e c614 e73d e044 0f80 ae3c e73d
00000130: 09f0 073e 6be1 aa3d 22fb 193e 0f9c 4dbd
00000140: 4dc6 0000 861b 0c80 ba3e 023e 437e 0b00
00000150: d79b 10bf e5b0 543d b803 08bf 441f e3be
00000160: 9b52 513d 0479 073e 512d 22bf c001 543e
00000170: 8e74 163e 2abd 7b3d 0737 353e 42f0 063e
00000180: 032e a9bd 756e 2f3e 793e 6abd a09c d73d
00000190: bf17 8b3d 5ed6 eebd 2bc0 3bc0 1f1e e63c
000001a0: 8509 1b3e ede3 0b00 4f88 283e 1678 2f3c
000001b0: b012 ad3d ade9 0580 90d7 0780 1813 423e
000001c0: 0e6c 2a3d 2246 3c3e 8171 253e b09f b73c
000001d0: 87cf 0a00 17be 9f3d bb27 123e b647 cb3d
000001e0: b79c b53d 614a 9abd 7e3c 0b00 3220 0f00
000001f0: c777 c63c 9a0d 0680 80ae 1abf 4354 aa3d
00000200: 7634 09bf d11b bbbd 123a b8bd 6f52 50bc
00000210: 8115 28bf 0565 6dbe 8673 e13e 41f8 cdbe
00000220: d5b5 39be b8b2 95bd 147a b2bd e6aa ed3d
00000230: 1295 56bc 74e8 c6bd fae6 ea3d 5c85 ee3c
00000240: 0270 1a3e 0e9f 40c0 a669 5a3d cbe0 0400
00000250: 7553 873c 2a8a 193e 2e8a cb3d e88a 1000
00000260: be1f 0980 311b 203e f56f 933d f879 e33d
00000270: 1332 a53d 9cbc 293e bf82 0b00 ef3a bc3d
00000280: b665 253e eba2 083e 4a86 b53d 03d2 153c
00000290: 68e5 1080 8db1 0d00 e791 633d d503 0480
000002a0: 32a6 e2be a110 00be a173 b4be 75e0 2d3f
000002b0: a4aa 383b 781d 133d 3562 fbbe 8d4b 533e
000002c0: b327 d3be 5948 f73e e5fa c63d 6de9 ffbd
000002d0: a80d 103c 1f35 113c 9a1f 87bd 37b2 64bd
000002e0: ea32 553c c157 013e c857 4e3e 218b bbbb
000002f0: 7f5b 87c0 12cd 0900 9424 1c3c 18df 133e
00000300: acff fe3d d21f 0280 25f7 0880 1123 873d
00000310: 897f b2bb 093e 533d 695b 32be 08ee 063e
00000320: f86f 0900 d5ff 9bbd e4a8 243d ba5f b13d
00000330: 5668 29be f5d5 e93c 59e5 0d00 50cc 0a80
00000340: 6fbc 66bb 81bd 0380 58f6 4fbf 28fa 72bb
00000350: 3dcb 2bbf 4d3a 6a3e ec88 24be 4ac9 adbd
00000360: a95c 57bf 9e90 e4bc 2358 bdbd cf2b 01be
00000370: 9180 d0bd 3a03 2dbe 36c9 c23c 92e1 573e
00000380: 0df3 87be c136 363e 60bd 543e 66ba 323b
00000390: aad2 313e 38c6 ce3d 3334 0b3e 912e 0480
000003a0: 2f13 433d e495 e93c 7536 fe3d 5de3 1080
000003b0: 85e5 0580 d140 3c3d 88b8 bebb cf79 0e3e
000003c0: b87d 443e ce01 1b3e 2edb 0380 12fb 333d
000003d0: c11e 153e a700 e43d ce86 f03d ea47 55bd
000003e0: 0664 0d80 9246 0980 ee2f ac3c d7ef 0e80
000003f0: 6d5f 34bf 6d42 083f c203 1abf eca2 34bd

fc.bias f4 [26]
-0.32091057 -0.5432623 -0.35477453 -0.48071644 -0.30395073 -0.57386976 -0.47771025 -0.47109
-0.31026682 -0.67492235 -0.60834396 -0.37597084 -0.4471489 -0.3404617 -0.29845437 -0.40458304
-0.7017736 -0.32983342 -0.34276542 -0.34542432 -0.40587118 -0.565725 -0.59579957 -0.6448137
-0.49811178 -0.63257205
00000000: 644e a4be 3d13 0bbf 02a5 b5be 7720 f6be
00000010: 6e9f 9bbe 21e9 12bf 7096 f4be b532 f1be
00000020: 4bdb 9ebe b6c7 2cbf 6ebc 1bbf 407f c0be
00000030: b3f0 e4be ff50 aebe 03cf 98be 8225 cfbe
00000040: 6fa7 33bf eddf a8be f37e afbe 75db b0be
00000050: 59ce cfbe 5bd3 10bf 5286 18bf 8312 25bf
00000060: 8208 ffbe 3ef0 21bf

exp_avg f4 [64, 27]
-9.821595e-07 2.095934e-07 7.448435e-08 -1.3323132e-07 -2.0926168e-06 4e-45 -4.7775682e-15 2.797899e-09
8.890208e-06 -4e-45 6e-45 -2.9164694e-06 -7.1588707e-10 -1.8900379e-06 7.2456606e-07 3.8698436e-09
-1e-45 -3.9312215e-07 -3.0306254e-08 -2.4119042e-06 -6.1419094e-08 -2.1137268e-27 -3e-45 3e-45
3.2528725e-08 4e-45 2.7862788e-07 4.1255485e-06 3.1401478e-07 -1.7420662e-05 -1.9900663e-06 4.7382277e-06
-3e-45 -3.1110563e-09 1.3172559e-07 4.578424e-06 4e-45 6e-45 1.1767325e-07 1.4680131e-07
-5.887801e-05 3.9479954e-05 -8.443826e-08 3e-45 -2.0617163e-06 1.4557754e-06 6.9117195e-06 2.1759438e-06
-8.56141e-16 3e-45 0.0 -5.6515194e-08 -1e-45 1.7386914e-05 -8.5835563e-07 3.3911395e-08
-1.6855199e-06 1.1497636e-06 -2.7059705e-06 3e-45 1.0916626e-13 2.1887636e-09 -4.1724593e-07 -4e-45
-0.0 -2.6964088e-07 7.475556e-10 8.702855e-07 5.711252e-06 -8.2447556e-08 1e-45 -4.2077338e-07
-1.17665984e-07 -1.369052e-06 -3.592479e-07 3.1713481e-27 0.0 -1e-45 1.965098e-08 -3e-45
-5.83009e-07 7.525125e-05 -7.0640212e-06 2.2003045e-05 4.6900054e-06 1.3255095e-05 -1e-45 1.8814278e-07
1.190835e-07 3.6921922e-06 1e-45 -3e-45 3.5492765e-06 -4.966993e-08 7.1936192e-06 2.7121862e-06
-9.23261e-07 4e-45 -3.170877e-05 -1.6986023e-06 -2.1047621e-05 -2.769142e-06 2.294782e-15 -6e-45
-1e-45 -1.7296273e-06 -4e-45 -2.7905837e-05 -1.1998338e-08 1.3205566e-07 -2.8613283e-07 -5.415109e-08
9.082137e-05 3e-45 -7.8286085e-14 -6.399382e-10 -6.5981774e-05 4e-45 -6e-45 -6.455036e-07
-3.8798085e-08 -2.9110772e-06 -4.7671253e-07 -2.9262854e-09 1e-45 2.70465e-06 -5.660438e-06 -5.13716e-06
-1.1915352e-05 3.5886916e-27 -6e-45 -1e-45 -1.7736349e-10 -4e-45 8.261563e-07 -9.5204564e-07
-3.036706e-07 -2.7851258e-06 -5.5255796e-08 8.1456074e-07 6e-45 -5.165681e-10 1.903334e-06 -2.4243434e-06
-1e-45 3e-45 1.0871445e-05 -1.7491045e-07 1.8667604e-06 -2.6395876e-06 -1.4011525e-07 1e-45
1.2430306e-05 -9.330175e-06 -7.065503e-06 -4.4377735e-08 1.7669392e-14 -3e-45 3e-45 3.983149e-09
4e-45 -2.8760517e-06 -1.9906377e-06 -2.634609e-07 -1.1903371e-07 5.188594e-08 -1.4595262e-06 -6e-45
-9.4640557e-14 -2.8175486e-09 9.732456e-07 -4e-45 4e-45 -1.8698614e-06 1.2053719e-08 -3.0786853e-06
1.756175e-06 -1.30676545e-08 3e-45 9.74158e-07 -3.6216596e-07 -3.1768109e-06 6.962726e-07 9.346646e-28
1e-45 4e-45 -6.9637885e-08 3e-45 8.462091e-06 -1.0376863e-06 3.055111e-06 -7.294963e-06
-1.4523888e-06 -6.91326e-07 4e-45 -5.2531835e-08 -5.922418e-07 -1.106217e-06 -1e-45 -0.0
4.6902944e-08 5.448803e-08 -7.885472e-06 -1.621244e-06 1.7297769e-07 3e-45 -4.863974e-07 1.1183772e-06
2.55542e-05 -8.314332e-06 8.134483e-25 0.0 6e-45 -3.955165e-08 -6e-45 2.1757767e-06
-0.00015626317 6.7559486e-05 -0.00014743606 -5.380635e-06 -0.00014286286 1e-45 -2.8010095e-07 -5.6333687e-07
-0.00013660284 -6e-45 1e-45 1.2142815e-05 -1.0348219e-07 -3.6592446e-05 -5.9006758e-05 -6.517396e-07
4e-45 3.938117e-06 7.206577e-06 0.0004837038 -3.7773443e-05 2.2721354e-11 -3e-45 -4e-45
5.45101e-07 -3e-45 5.1587285e-05 8.716788e-05 -1.0198349e-07 -1.0373038e-05 -9.090209e-09 -1.7810535e-05
1e-45 -1.9743892e-08 4.4376772e-08 4.800232e-06 -4e-45 3e-45 -4.4523285e-06 -3.144527e-07
00000000: bed2 83b5 980c 6134 34f4 9f33 590e 0fb4
00000010: e26e 0cb6 0300 0000 4a21 aca7 2945 4031
00000020: 2727 1537 0300 0080 0400 0000 90b8 43b6
00000030: 13c8 44b0 35ad fdb5 cd7f 4235 81f7 8431
00000040: 0100 0080 4c0e d3b4 142a 02b3 33dc 21b6
00000050: 81e5 83b3 7977 2793 0200 0080 0200 0000
00000060: b6b5 0b33 0300 0000 5396 9534 316e 8a36
00000070: dd95 a834 9622 92b7 148d 05b6 11fd 9e36
00000080: 0200 0080 48ca 55b1 7470 0d34 5da0 9936
00000090: 0300 0000 0400 0000 8eb3 fc33 70a0 1d34
000000a0: c8f3 76b8 4797 2538 6d54 b5b3 0200 0000
000000b0: 045c 0ab6 1064 c335 38eb e736 6e06 1236
000000c0: 0ec4 76a6 0200 0000 0000 0000 1dbb 72b3
000000d0: 0100 0080 1dda 9137 c069 66b5 f9a5 1133
000000e0: 063a e2b5 9451 9a35 3898 35b6 0200 0000
000000f0: 10d2 f529 2369 1631 d801 e0b4 0300 0080
00000100: 0000 0080 29c3 90b4 8c7c 4d30 909d 6935
00000110: 48a3 bf36 060e b1b3 0100 0000 a7e6 e1b4
00000120: 8faf fcb3 45c0 b7b5 a8de c0b4 9542 7b13
00000130: 0000 0000 0100 0080 f6cc a832 0200 0080
00000140: 1380 1cb5 35d0 9d38 7b07 edb6 2e93 b837
00000150: d75e 9d36 3362 5e37 0100 0080 4b04 4a34
00000160: d9ba ff33 61c7 7736 0100 0000 0200 0080
00000170: 1b30 6e36 aa54 55b3 b860 f136 0103 3636
00000180: 03d6 77b5 0300 0000 08ff 04b8 88fb e3b5
00000190: 6c8f b0b7 7fd5 39b6 425b 2527 0400 0080
000001a0: 0100 0080 8b25 e8b5 0300 0080 5417 eab7
000001b0: 4021 4eb2 2fcb 0d34 cc9d 99b4 c193 68b3
000001c0: 5a77 be38 0200 0000 db48 b0a9 a6e7 2fb0
000001d0: b25f 8ab8 0300 0000 0400 0080 ab46 2db5
000001e0: f2a2 26b3 ed5b 43b6 dfee ffb4 c217 49b1
000001f0: 0100 0000 8881 3536 cbee bdb6 de5f acb6
00000200: 0ce8 47b7 a829 8e13 0400 0080 0100 0080
00000210: 6203 43af 0300 0080 07c5 5d35 1490 7fb5
00000220: 2b08 a3b4 19e8 3ab6 6452 6db3 30a8 5a35
00000230: 0400 0000 40fe 0db0 0f76 ff35 e7b1 22b6
00000240: 0100 0080 0200 0000 8064 3637 05cf 3bb4
00000250: 668d fa35 c523 31b6 9672 16b4 0100 0000
00000260: c28b 5037 cc88 1cb7 3514 edb6 d699 3eb3
00000270: d826 9f28 0200 0080 0200 0000 26dc 8831
00000280: 0300 0000 3102 41b6 e596 05b6 ca71 8db4
00000290: 799f ffb3 32d9 5e33 f0e4 c3b5 0400 0080
000002a0: 911c d5a9 d79e 41b1 77a0 8235 0300 0080
000002b0: 0300 0000 f3f7 fab5 d114 4f32 699b 4eb6
000002c0: b7b5 eb35 2780 60b2 0200 0000 d0bf 8235
000002d0: b66f c2b4 3231 55b6 7de7 3a35 801a 9412
000002e0: 0100 0000 0300 0000 d58b 95b3 0200 0000
000002f0: 67f8 0d37 a146 8bb5 6806 4d36 41c7 f4b6
00000300: b3ef c2b5 9093 39b5 0300 0000 5d9f 61b3
00000310: 8cfa 1eb5 5479 94b5 0100 0080 0000 0080
00000320: 5572 4933 3906 6a33 d84b 04b7 8599 d9b5
00000330: bfbb 3934 0200 0000 fa90 02b5 261b 9635
00000340: 3a5d d637 c97d 0bb7 04c0 7b17 0000 0000
00000350: 0400 0000 80df 29b3 0400 0080 8f03 1236
00000360: 93da 23b9 b9ae 8d38 1199 1ab9 4d8b b4b6
00000370: 75cd 15b9 0100 0000 c860 96b4 3738 17b5
00000380: 0c3d 0fb9 0400 0080 0100 0000 feb8 4b37
00000390: f039 deb3 d77a 19b8 067e 77b8 34f3 2eb5
000003a0: 0300 0000 2b24 8436 06d0 f136 a099 fd39
000003b0: ed6e 1eb8 f1db c72d 0200 0080 0300 0080
000003c0: 0e53 1235 0200 0080 6d5f 5838 e6cd b638
000003d0: 0402 dbb3 dc07 2eb7 292b 1cb2 d567 95b7
000003e0: 0100 0000 4799 a9b2 c798 3e33 ae11 a136
000003f0: 0300 0080 0200 0000 3665 95b6 0dd2 a8b4

exp_avg_sq f4 [64, 27]
3.2137567e-11 7.354986e-14 3.981899e-13 3.009227e-11 1.5122027e-10 7e-43 6.859329e-15 5.836729e-14
1.2665843e-10 7e-43 7e-43 7.4354044e-11 5.3681252e-14 5.840289e-11 3.0760203e-11 1.3177285e-13
7e-43 8.8410064e-11 2.4667914e-11 8.6450264e-11 1.3376089e-11 2.572913e-15 7.453012e-28 7e-43
6.399115e-14 7e-43 1.7400568e-10 8.670723e-09 1.3379491e-11 4.1515022e-10 3.50897e-09 1.9857749e-09
7e-43 8.2670914e-13 7.2108773e-12 2.0878073e-09 7e-43 7e-43 1.476468e-10 3.0115833e-11
5.3373935e-08 1.2053587e-08 2.6893895e-11 7e-43 4.142212e-09 2.1709263e-09 2.8710085e-09 8.244906e-11
1.9087597e-13 7.06055e-24 7e-43 4.6448904e-12 7e-43 1.3318613e-08 2.5856121e-11 1.3963806e-13
8.283683e-12 2.2894702e-11 1.171316e-10 7e-43 3.4154506e-14 1.5011305e-13 1.1152855e-10 7e-43
7e-43 2.5371916e-11 2.4177917e-14 1.4971083e-10 5.2251845e-11 1.902525e-12 7e-43 5.6267574e-11
6.7669798e-12 2.1951949e-11 7.1815665e-12 2.7454947e-15 1.00581105e-29 7e-43 1.525434e-13 7e-43
3.4830746e-11 1.8576563e-07 5.483854e-10 4.209514e-09 2.7191662e-08 5.267918e-07 7e-43 2.018336e-10
9.686836e-10 4.8768456e-08 7e-43 7e-43 1.3860462e-08 4.3820525e-10 3.2406202e-08 3.8571004e-09
2.0752733e-09 7e-43 8.5290296e-08 6.206121e-08 2.3915092e-08 2.687208e-10 2.1441624e-13 3.6615764e-21
7e-43 6.9970646e-10 7e-43 9.711285e-08 8.096403e-10 6.634934e-13 7.468157e-12 1.101285e-10
4.8072444e-08 7e-43 3.4610518e-15 3.023385e-14 4.3674895e-08 7e-43 7e-43 2.51228e-10
1.0823156e-12 1.5645099e-09 1.6987385e-10 2.4580254e-13 7e-43 5.989803e-10 2.0339566e-09 1.09538136e-10
3.8560017e-09 3.6645073e-16 1.6025203e-25 7e-43 1.9377476e-14 7e-43 1.3517873e-09 1.022462e-09
7.946098e-13 3.1447556e-11 6.948844e-11 2.7298275e-09 7e-43 9.751788e-13 7.35387e-11 4.0159379e-10
7e-43 7e-43 4.7022612e-09 1.6414379e-11 1.1416024e-08 1.9559322e-10 4.2898327e-11 7e-43
2.4641809e-09 1.67698e-08 1.541163e-08 1.2572218e-10 2.3971542e-13 7e-43 7e-43 8.3383387e-13
7e-43 1.6211855e-08 8.455616e-11 6.8319075e-14 4.2141017e-12 1.0788669e-11 1.7574102e-10 7e-43
2.9045654e-14 1.5057417e-14 1.3921378e-11 7e-43 7e-43 2.3867696e-11 1.5949647e-13 1.8665341e-10
3.4023027e-11 1.11373035e-13 7e-43 1.0834729e-10 6.604662e-11 1.7867057e-11 7.7405123e-13 6.4055093e-16
7.07765e-29 7e-43 2.6873589e-14 7e-43 1.5271942e-10 4.0951145e-09 2.070581e-11 8.824913e-11
4.8247106e-10 2.3507642e-09 7e-43 5.8731743e-12 2.7946655e-11 9.306092e-09 7e-43 7e-43
1.1196897e-10 9.946582e-12 1.08611005e-08 2.0030273e-10 2.1422369e-11 7e-43 2.9723202e-09 2.8829972e-09
2.7247967e-08 1.3530362e-09 7.818928e-14 9.8283246e-23 7e-43 7.35546e-12 7e-43 1.0180409e-08
1.7100474e-07 5.2116604e-09 8.437999e-09 2.9271808e-08 2.121473e-07 7e-43 1.0016967e-09 3.9846486e-09
1.1773274e-07 7e-43 7e-43 1.233231e-08 1.8844588e-10 3.750725e-08 5.921507e-08 1.7729192e-10
7e-43 1.0808354e-08 1.2175974e-07 1.1706685e-06 9.762479e-09 1.0484269e-12 7.410671e-20 7e-43
1.2858246e-09 7e-43 1.3589198e-07 3.376641e-07 1.2226341e-11 5.1756416e-10 1.500047e-08 1.3700286e-08
7e-43 2.1113963e-12 2.6249834e-11 2.9875946e-07 7e-43 7e-43 8.794701e-09 9.713241e-11
00000000: af57 0d2e 9c9e a529 3629 e02a e258 042e
00000010: b944 262f f401 0000 2522 f727 746e 8329
00000020: 2e43 0b2f f401 0000 f401 0000 9b81 a32e
00000030: 45c2 7129 e76d 802e e948 072e f05c 142a
00000040: f401 0000 716a c22e 34fb d82d 2c1b be2e
00000050: 8d50 6b2d de65 3927 0432 6c12 f401 0000
00000060: 6318 9029 f401 0000 3f52 3f2f 3ef6 1432
00000070: df5f 6b2d 333b e42f 7422 7131 1f76 0831
00000080: f401 0000 acb2 682b cfb5 fd2c 1879 0f31
00000090: f401 0000 f401 0000 e156 222f 6a73 042e
000000a0: 433d 6533 3c14 4f32 ab8f ec2d f401 0000
000000b0: 4853 8e31 572f 1531 514b 4531 b24e b52e
000000c0: 41e8 562a 2692 0819 f401 0000 746d a32c
000000d0: f401 0000 e1cf 6432 cf6e e32d ee37 1d2a
000000e0: 64ba 112d 4962 c92d 9dc9 002f f401 0000
000000f0: 77d1 1929 2403 292a fe40 f52e f401 0000
00000100: f401 0000 7a2c df2d 7bc6 d928 da9b 242f
00000110: 59ce 652e d8e0 052c f401 0000 a877 772e
00000120: 8917 ee2c 6517 c12d cdad fc2c 70d5 4527
00000130: b200 4c0f f401 0000 a4bf 2b2a f401 0000
00000140: ef2f 192e de76 4734 31bd 1630 47a3 9031
00000150: 1993 e932 db68 0d35 f401 0000 1ceb 5d2f
00000160: 8622 8530 7c75 5133 f401 0000 f401 0000
00000170: f51e 6e32 e8e7 f02f ff2e 0b33 6a87 8431
00000180: 989c 0e31 f401 0000 d628 b733 8346 8533
00000190: d86d cd32 17bb 932f 4669 712a 9854 8a1d
000001a0: f401 0000 7755 4030 f401 0000 5b8c d033
000001b0: 5f8d 5e30 bdc1 3a2b 9761 032d d52c f22e
000001c0: 3678 4e33 f401 0000 2365 7927 4129 0829
000001d0: 0e95 3b33 f401 0000 f401 0000 331d 8a2f
000001e0: 8752 982b 4c06 d730 3dc7 3a2f e15f 8a2a
000001f0: f401 0000 7ea5 2430 bec5 0b31 7de0 f02e
00000200: c07d 8431 953e d325 e561 4616 f401 0000
00000210: 6b89 ae28 f401 0000 cac9 b930 af86 8c30
00000220: aca9 5f2b cd4e 0a2e 84ce 982e a297 3b31
00000230: f401 0000 853e 892b 9cb6 a12e 4dc7 dc2f
00000240: f401 0000 f401 0000 8791 a131 e561 902d
00000250: 3420 4432 990e 572f 39ab 3c2e f401 0000
00000260: 5456 2931 2e0d 9032 8862 8432 a63b 0a2f
00000270: a2f2 862a f401 0000 f401 0000 10b4 6a2b
00000280: f401 0000 3f42 8b32 e3f0 b92e 44d7 9929
00000290: 4145 942c d8cb 3d2d b33a 412f f401 0000
000002a0: 5ccf 0229 0aa0 8728 50e8 742d f401 0000
000002b0: f401 0000 46f1 d12d ba93 332a 443a 4d2f
000002c0: 86a2 152e 2fca fa29 f401 0000 1a42 ee2e
000002d0: f13c 912e 0929 9d2d 45e0 592b 51a0 3826
000002e0: 9370 b310 f401 0000 470e f228 f401 0000
000002f0: b2ea 272f 02b5 8c31 5721 b62d d80f c22e
00000300: e29e 0430 158b 2131 f401 0000 daa4 ce2c
00000310: 46d2 f52d a0e0 1f32 f401 0000 f401 0000
00000320: ed38 f62e 6cfb 2e2d a097 3a32 353c 5c2f
00000330: e36e bc2d f401 0000 9c41 4c31 391e 4631
00000340: ea0e ea32 bbf5 b930 0d11 b029 62a2 ed1a
00000350: f401 0000 0c66 012d f401 0000 eae5 2e32
00000360: 6d9d 3734 4012 b331 b6f6 1032 6371 fb32
00000370: 9bca 6334 f401 0000 12ac 8930 57e9 8831
00000380: 42d4 fc33 f401 0000 f401 0000 13de 5332
00000390: cd32 4f2f a817 2133 a853 7e33 3def 422f
000003a0: f401 0000 a5af 3932 10bd 0234 dd1f 9d35
000003b0: d6b7 2732 8f8d 932b c2fa ae1f f401 0000
000003c0: eeb8 b030 f401 0000 b4e9 1134 3348 b534
000003d0: 8b16 572d 5744 0e30 62da 8032 7f5e 6b32
000003e0: f401 0000 8993 142c 5fe5 e62d 3065 a034
000003f0: f401 0000 f401 0000 8117 1732 b098 d52e

exp_avg f4 [64, 16]
-2.974434e-07 5.044712e-07 2.2963171e-07 -7.220761e-07 7.171292e-07 2.459841e-07 3.2446258e-07 -8.242567e-08
1.7830775e-08 1.124192e-06 1.4842252e-06 1.5046471e-07 -4.827945e-07 4.8877973e-07 -2.9568892e-07 6.534355e-07
4.511216e-06 1.3139544e-05 -1.2441258e-07 -2.7449207e-06 2.349845e-06 -3.5673955e-07 4.0725486e-06 2.9415198e-06
-2.3611126e-06 -1.3447179e-06 2.6582277e-06 -1.5451512e-07 -8.115672e-06 -2.7470087e-06 5.3580807e-06 2.9677303e-06
3.29828e-07 1.1979497e-06 3.8760086e-07 -4.2551258e-07 -4.8665777e-07 -2.8757754e-08 1.545122e-07 -1.4172142e-07
3.1070593e-09 7.178928e-07 2.4899978e-07 -2.1514913e-07 2.4804834e-07 -6.737023e-08 2.2108392e-07 3.477433e-07
-5.4889495e-07 4.166876e-06 2.2367765e-07 -5.2311584e-06 -3.3002077e-06 -1.4759612e-06 -1.016714e-06 -2.3542932e-06
2.9911448e-07 2.2326307e-05 8.627788e-06 7.711921e-06 4.277784e-06 -4.5519646e-06 2.6734705e-07 -7.287129e-07
9.0939975e-06 -3.7609057e-06 -7.985465e-06 9.0473295e-06 2.0269702e-06 9.0515925e-07 2.1502508e-06 9.948872e-07
8.276821e-09 -3.5109773e-05 -1.9952631e-05 -1.5346423e-06 1.357679e-06 1.3698165e-06 8.498903e-06 -5.242032e-06
1.5393258e-08 3.669856e-07 -1.8795245e-07 5.005611e-07 -5.9224294e-07 -3.769676e-06 -1.8301511e-06 -5.381019e-07
5.127652e-07 -1.101739e-06 -1.2854841e-06 -1.5934961e-06 1.1242614e-06 1.4308945e-06 -2.2902561e-06 -2.185938e-06
1.3481826e-08 2.997986e-07 4.5853117e-08 -4.3552726e-07 3.122506e-07 2.6975525e-07 2.7104818e-07 -7.821414e-08
9.219036e-08 3.7679612e-07 3.760991e-07 -6.2228565e-08 -4.7189928e-07 6.2851905e-07 2.1469074e-07 2.816495e-07
-1.8299653e-07 -2.953005e-07 -2.5502711e-08 6.978138e-07 -1.6056182e-06 6.902824e-07 4.725377e-07 3.951443e-06
-1.3329219e-06 -4.0076213e-07 3.3143928e-07 6.686938e-07 -3.0431675e-06 -3.8944686e-06 2.4957e-06 -9.0333907e-07
-2.538287e-05 -2.565292e-05 1.6490545e-05 -1.5321722e-06 -5.567634e-05 1.2339642e-05 -7.910657e-06 5.356854e-05
-1.35973705e-05 5.370319e-05 5.8430533e-06 7.0178608e-06 -3.297626e-05 -5.9345795e-05 2.7765574e-05 -1.7487217e-05
-6.540548e-06 -2.057579e-07 2.293587e-06 -3.9750657e-06 7.820356e-06 9.89321e-07 1.1331394e-06 2.467842e-06
-2.1989808e-06 1.41029495e-05 1.643576e-05 5.052863e-06 -2.8303627e-06 -6.73235e-06 -6.551632e-06 2.4466606e-06
4.2624292e-06 1.5960808e-08 -4.1185676e-06 3.843295e-06 1.7609411e-06 1.0412629e-06 1.1152091e-06 2.5375684e-07
-8.2761727e-07 -1.4664227e-05 -8.193085e-06 1.6440415e-06 6.232833e-07 -1.641733e-06 3.7424895e-06 -1.0356339e-06
9.237849e-08 9.2288035e-09 -2.7391605e-08 -1.2753587e-07 1.747568e-08 7.644666e-07 2.1846955e-07 4.887234e-07
-3.3006913e-07 5.4545285e-07 2.6586326e-07 7.7846533e-07 3.033514e-08 -9.798757e-07 5.908917e-07 2.7648338e-07
-9.850315e-07 -2.528185e-07 1.0520931e-06 2.0226926e-06 -9.693299e-07 4.3807563e-07 5.6582695e-07 7.5479875e-06
-3.494126e-06 -2.834748e-06 3.870688e-07 3.0232687e-07 -4.3910113e-06 -9.155546e-06 1.7906217e-06 -1.5844263e-06
-6.515266e-07 -1.5611502e-06 5.8805375e-07 3.2502632e-07 -6.352204e-07 2.3476387e-06 2.0785487e-06 4.9029345e-06
-2.2940462e-06 -6.370114e-07 2.1678795e-06 3.3722952e-06 -1.74731e-06 -9.994085e-06 3.3130248e-06 -2.524674e-06
-5.845391e-07 7.721806e-07 4.0170144e-07 -6.752716e-07 2.123598e-06 1.4395278e-07 6.3914547e-07 6.138268e-08
-4.977561e-07 8.6727795e-07 2.695458e-06 7.429219e-07 -3.2484448e-07 -4.4194556e-07 -1.2829056e-06 7.298684e-07
-8.1727103e-07 -2.849636e-07 6.111601e-08 -5.287401e-07 3.351628e-07 -1.940389e-06 -4.2897577e-07 4.2257113e-07
5.5532524e-08 1.6763474e-06 1.6556431e-06 2.7136963e-07 -7.667627e-08 -2.793386e-07 -9.651666e-07 -2.1004105e-06
00000000: 4fb0 9fb4 ff6a 0735 af90 7634 b1d4 41b5
00000010: be80 4035 cc0f 8434 cc31 ae34 fe01 b1b3
00000020: 4a2a 9932 f1e2 9635 9735 c735 6d8f 2134
00000030: 6399 01b5 b034 0335 2dbf 9eb4 bf67 2f35
00000040: 0d5f 9736 e971 5c37 4596 05b4 6135 38b6
00000050: 08b2 1d36 e985 bfb4 eda6 8836 ed66 4536
00000060: 9b73 1eb6 287c b4b5 0164 3236 cbe8 25b4
00000070: 8c28 08b7 4059 38b6 90c9 b336 3829 4736
00000080: 3713 b134 3dc9 a035 7517 d034 0172 e4b4
00000090: dea2 02b5 f806 f7b2 fde7 2534 162c 18b4
000000a0: f783 5531 38b5 4035 45ae 8534 be03 67b4
000000b0: 812b 8534 2dad 90b3 1663 6d34 7ab1 ba34
000000c0: c657 13b5 31d1 8b36 0b2c 7034 4f87 afb6
000000d0: 2379 5db6 a419 c6b5 0776 88b5 73fe 1db6
000000e0: fb95 a034 6149 bb37 11c0 1037 7362 0137
000000f0: e289 8f36 14bd 98b6 e687 8f34 c59c 43b5
00000100: 6c92 1837 de63 7cb6 50f9 05b7 fcc9 1737
00000110: 1507 0836 12fa 7235 074d 1036 1088 8535
00000120: d831 0e32 d542 13b8 f35f a7b7 e8f9 cdb5
00000130: 7f39 b635 89da b735 8396 0e37 b6e4 afb6
00000140: 223a 8432 1e06 c534 facf 49b4 4c5e 0635
00000150: a0fa 1eb5 8afa 7cb6 83a3 f5b5 1572 10b5
00000160: f5a4 0935 77df 93b5 e688 acb5 1ce0 d5b5
00000170: 54e5 9635 290d c035 4db2 19b6 21b2 12b6
00000180: b39d 6732 01f4 a034 09f0 4433 69d2 e9b4
00000190: 65a3 a734 e1d2 9034 9484 9134 aef6 a7b3
000001a0: 30fa c533 774a ca34 abea c934 84a2 85b3
000001b0: 5859 fdb4 80b7 2835 be85 6634 9d35 9734
000001c0: b47d 44b4 cb89 9eb4 0e11 dbb2 6651 3b35
000001d0: 9f80 d7b5 d84b 3935 16b1 fd34 a396 8436
000001e0: d9e6 b2b5 5428 d7b4 abf0 b134 4a80 3335
000001f0: 3839 4cb6 3bad 82b6 cd7b 2736 fd7c 72b5
00000200: 4ced d4b7 3a31 d7b7 2d55 8a37 09a5 cdb5
00000210: 0486 69b8 5c06 4f37 03b8 04b7 c8ae 6038
00000220: 4320 64b7 5c3f 6138 720f c436 f77a eb36
00000230: fd4f 0ab8 10ea 78b8 1eea e837 83b1 92b7
00000240: e176 dbb6 4dee 5cb4 86eb 1936 8e61 85b6
00000250: 2c34 0337 d0c8 8435 6016 9835 349d 2536
00000260: 3492 13b6 b59b 6c37 87df 8937 c38b a936
00000270: 43f1 3db6 72e6 e1b6 17d6 dbb6 4f31 2436
00000280: fd05 8f36 301a 8932 3a32 8ab6 a7f5 8036
00000290: 7a59 ec35 85c1 8b35 4bae 9535 133c 8834
000002a0: 6d29 5eb5 6006 76b7 0875 09b7 d6a8 dc35
000002b0: b44f 2735 8459 dcb5 7b27 7b36 1c00 8bb5
000002c0: 9d61 c633 b58c 1e32 c74a ebb2 cbf0 08b4
000002d0: 6d1d 9632 bf35 4d35 7494 6a34 d130 0335
000002e0: 5b34 b1b4 3c6b 1235 f8bb 8e34 bbf7 5035
000002f0: d749 0233 4684 83b5 c59d 1e35 966f 9434
00000300: 6d35 84b5 1cbb 87b4 a535 8d35 98bd 0736
00000310: ec19 82b5 a830 eb34 55e3 1735 b844 fd36
00000320: a17c 6ab6 9a3c 3eb6 55ce cf34 7d4f a234
00000330: 8056 93b6 c59a 19b7 4b55 f035 79a8 d4b5
00000340: 91e4 2eb5 b688 d1b5 bfda 1d35 477f ae34
00000350: 0384 2ab5 208c 1d36 327d 0b36 e383 a436
00000360: 6af3 19b6 17ff 2ab5 e37b 1136 974f 6236
00000370: 1d85 eab5 45ac 27b7 5555 5e36 926d 29b6
00000380: 39e9 1cb5 d947 4f35 6da9 d734 5044 35b5
00000390: 2383 0e36 7091 1a34 be91 2b35 7cd1 8333
000003a0: 8a9d 05b5 e3ce 6835 9ee3 3436 346d 4735
000003b0: 4966 aeb4 8944 edb4 4d30 acb5 2dec 4335
000003c0: 7062 5bb5 19fd 98b4 e23e 8333 beee 0db5
000003d0: 6df0 b334 a137 02b6 fb4d e6b4 bcdd e234
000003e0: a882 6e33 dcfe e035 7737 de35 c2b0 9134
000003f0: 3aa9 a4b3 01f8 95b4 df8a 81b5 c7f4 0cb6
